Sign_language_Digits.onnx (onnx, 356013 bytes, 12 tensors)

dense_1/kernel:0 f4 [64, 10]
0	0x3df4c0ae	0.11950813
1	0x3cd5da23	0.026104992
2	0xbd8823fb	-0.06647488
3	0x3d268639	0.04065535
4	0x3cf3283c	0.029682271
5	0x3e3fd734	0.18734437
6	0xbdfe76c4	-0.124249965
7	0xbe5a64f7	-0.21327578
8	0xbe020d63	-0.12700419
9	0xbe8504c6	-0.25980204
10	0xbe87a54c	-0.264933
11	0x3e7c5c99	0.24644698
12	0x3d86b6d0	0.065778375
13	0x3e412a3d	0.18863769
14	0x3e1f7749	0.15572847
15	0xbe92abdb	-0.2864674
16	0x3ba3a9d4	0.0049946103
17	0xbd57038e	-0.052493624
18	0x3e6185b7	0.22023664
19	0xbe919e1a	-0.28440934
20	0x3e7426db	0.23842947
21	0xbe51d10b	-0.204899
22	0x3e828728	0.2549374
23	0x3dc9f544	0.09861234
24	0xbe96bdcc	-0.2944168
25	0xbebb15dc	-0.36540115
26	0x3c8c9d9d	0.017165
27	0xbe71309f	-0.23553704
28	0x3e1112cf	0.14167331
29	0xbe884b0c	-0.26619756
30	0x3e2b907f	0.1675434
31	0x3cca9c00	0.02473259
32	0x3e602e71	0.21892716
33	0x3e75638a	0.23963752
34	0xbdbcb12c	-0.0921348
35	0xbd2c8630	-0.04212016
36	0xbcada7f3	-0.021198248
37	0xbe134e7c	-0.14385408
38	0x3e485a40	0.19565678
39	0x3e1834c5	0.1486388
40	0x3e671bc0	0.2256918
41	0x398ef52e	0.00027267024
42	0x3e0aefec	0.13568085
43	0x3d95e108	0.07318312
44	0xbdb1fe3f	-0.08691072
45	0xbe41a6fa	-0.18911353
46	0xbeb07f7c	-0.34472263
47	0x3db8b5c2	0.090190426
48	0xbe205808	-0.15658581
49	0x3dcde2b9	0.100530095
50	0xbe9a2db3	-0.3011299
51	0x3e6281cb	0.22119825
52	0xbe041307	-0.12897883
53	0xbe7f00de	-0.24902675
54	0xbe844098	-0.2583053
55	0xbd006cdb	-0.031353813
56	0xbe439d10	-0.19102883
57	0xbd5e246d	-0.054233957
58	0x3e34e583	0.17665677
59	0xbe557e39	-0.20848931
60	0x3e732d7a	0.23747817
61	0xbd73fab3	-0.059565257
62	0xbdd50c94	-0.1040279
63	0xbea12b6b	-0.31478438
64	0xbdfa68a5	-0.122269906
65	0x3dee7a37	0.116444044
66	0x3e73abf8	0.2379607
67	0x3e3078ba	0.17233554
68	0xbd6620bd	-0.056183565
69	0x3e289695	0.16463692
70	0x3e70c596	0.23512873
71	0xbe35fca1	-0.17772152
72	0xbb959162	-0.00456445
73	0x3e4e1db0	0.20128512
74	0xbea3574a	-0.31902534
75	0xbe7b72de	-0.24555537
76	0xbde8812d	-0.11352763
77	0x3d8c3744	0.068464786
78	0xbe0cc5c9	-0.13747324
79	0xbd8ae6f0	-0.06782329
80	0x3e2b98c8	0.167575
81	0xbe87183d	-0.2638568
82	0xbd8807da	-0.066421226
83	0xbdffa55c	-0.12482712
84	0x3e87d7c8	0.26531816
85	0xbd5973db	-0.053089004
86	0xbde61b1f	-0.11235642
87	0x3cb37d34	0.021910287
88	0xbdfbcf62	-0.122954145
89	0xbe367b7f	-0.17820548
90	0xbd92a56d	-0.07160459
91	0xbd87e663	-0.0663574
92	0xbe899d6b	-0.26877913
93	0x3e6f554d	0.23372383
94	0xbea26512	-0.31717736
95	0xbd800412	-0.06250776
96	0x3d9984b0	0.07496011
97	0x3e1bc43a	0.15211573
98	0xbd4de36a	-0.050265707
99	0xbd467338	-0.048449725
100	0xbcc199ee	-0.02363297
101	0xbd928f3d	-0.07156227
102	0x3e93790c	0.2880329
103	0xbe5cf2f9	-0.21577062
104	0x3e5e736a	0.21723714
105	0xbeab573c	-0.33464992
106	0xbd5e2ed0	-0.054243863
107	0x3e06d896	0.13168558
108	0x3db12bc8	0.08650929
109	0xbe294589	-0.16530432
110	0xbe88f824	-0.26751816
111	0x3db07311	0.08615697
112	0x3de86ed4	0.11349264
113	0xbd1e6f15	-0.038680155
114	0x3e212833	0.15737991
115	0xbeb57b49	-0.35445622
116	0x3d9bdbc1	0.07610274
117	0x3d117646	0.035513185
118	0x3e7896cf	0.24276279
119	0xbbe2915e	-0.006914302
120	0xbdaac7da	-0.083389
121	0x3deffcd4	0.11718145
122	0x3d179ee9	0.037016783
123	0x3db06d28	0.0861457
124	0xbb634bc6	-0.0034682616
125	0xbe1f4317	-0.15552936
126	0xbd6babc3	-0.05753685
127	0x3e0b401d	0.13598676
128	0x3e286389	0.1644422
129	0x3e3048fe	0.17215344
130	0x3e05ac4f	0.13054012
131	0x3ea2c77f	0.31792828
132	0x3e4a5f73	0.19762973
133	0x3df4c06a	0.119507626
134	0xbe820c7f	-0.2540016
135	0xbd52fd47	-0.051511075
136	0xbd292a49	-0.041300092
137	0xbdd79d12	-0.10528006
138	0xbe8988be	-0.26862139
139	0xbe4105a0	-0.18849802
140	0x3e226d05	0.158619
141	0x3e1899be	0.14902398
142	0xbc836334	-0.016038515
143	0x3e8abc9b	0.2709702
144	0x3e0a02e8	0.13477671
145	0xbe27d3ee	-0.16389439
146	0x3eab8fd0	0.33508158
147	0xbccdaf27	-0.025107933
148	0xbe844fe4	-0.25842202
149	0xbe93a0ec	-0.2883371
150	0x3e5c0310	0.21485543
151	0xbe7558cb	-0.23959653
152	0x3e8a01a7	0.26954386
153	0xbdb235ff	-0.08701705
154	0xbe5aaa62	-0.21354058
155	0x3e97fe7f	0.29686353
156	0x3da4890f	0.08033954
157	0x3c3e88c6	0.011629289
158	0xbd8bc767	-0.06825142
159	0x3e982128	0.29712796
160	0x3e1f06c2	0.15529922
161	0x3e0641f2	0.13111094
162	0xbd3207cb	-0.043464463
163	0xbe5488d1	-0.20755316
164	0xbded3024	-0.11581448
165	0x3e64a3c6	0.223281
166	0x3e650d5a	0.22368374
167	0xbe637ded	-0.22216006
168	0x3e576981	0.2103634
169	0x3e1081b1	0.14111973
170	0xbe0e5f9e	-0.13903663
171	0xbe8178fc	-0.25287616
172	0x3d506ff2	0.05088801
173	0x3e5dea91	0.21671511
174	0x3e06392d	0.13107748
175	0x3e1d1076	0.1533831
176	0x3d434544	0.04767348
177	0x3e2247f9	0.15847768
178	0xbe6dfd95	-0.23241265
179	0xbd928bcc	-0.071555704
180	0x3dcebf2b	0.10095056
181	0x3e5c2105	0.21496971
182	0xbe4e4a87	-0.20145617
183	0xbe8449cd	-0.25837556
184	0xbe419596	-0.18904719
185	0xbe337ddf	-0.17528485
186	0xbe82ee5b	-0.25572476
187	0xbcbda822	-0.023151461
188	0x3cfe4674	0.031039454
189	0xbdb3bf93	-0.08776774
190	0x3e26545e	0.16243121
191	0xbce6b726	-0.028163504
192	0x3da267e1	0.079299696
193	0x3d37933b	0.044818144
194	0xbea058b2	-0.3131767
195	0x3e7e0f92	0.24810627
196	0x3dc9da09	0.0985604
197	0x3e0cc3e9	0.13746609
198	0xbcce2134	-0.025162317
199	0x3dd3bb13	0.10338416
200	0xbe605e99	-0.21911086
201	0xbce0258a	-0.02736165
202	0xbb674115	-0.0035286595
203	0x3dd46b34	0.1037201
204	0x3cf8494b	0.030308386
205	0x3d316edb	0.04331861
206	0x3e2fc446	0.17164716
207	0xbe8edc9b	-0.27902684
208	0x3e645f08	0.22301877
209	0x3e1ff8a5	0.15622194
210	0xbe98c20a	-0.2983554
211	0xbdd447ed	-0.10365281
212	0x3e864bc6	0.26229686
213	0xbe0bfdde	-0.13671061
214	0x3dcadfd9	0.09905977
215	0x3e8d37e7	0.27581713
216	0xbe38b387	-0.18037234
217	0x3d1031b2	0.035203643
218	0xbd291917	-0.041283693
219	0xbe5951c0	-0.21222591
220	0x3e27dffe	0.1639404
221	0xbdb4cb6e	-0.08827864
222	0x3e919069	0.2843049
223	0x3e1c9eee	0.15295002
224	0xbe5d72d2	-0.21625832
225	0xbe5cfbf9	-0.21580495
226	0x3defab9d	0.117026545
227	0x3df84519	0.12122554
228	0xbe86488a	-0.26227218
229	0xbe57865f	-0.21047352
230	0xbe0e60f5	-0.13904174
231	0x3dfda502	0.12384988
232	0x3e36bc85	0.17845352
233	0x3caf4a2a	0.021397669
234	0x3e37cbe3	0.1794887
235	0xbe1034f7	-0.14082704
236	0xbdfeb207	-0.124363
237	0xbdd93b30	-0.10606992
238	0x3ba36c02	0.004987241
239	0x3e3decf3	0.1854742
240	0xbe3c9bd4	-0.18418819
241	0x3ccc44ab	0.024935087
242	0x3db6bbe3	0.08922555
243	0x3e8f4c13	0.27987728
244	0xbe00ae9b	-0.12566607
245	0x3e31a20d	0.17346974
246	0x3e446bf5	0.19181807
247	0x3da6b8f8	0.08140749
248	0x3ddabfe4	0.106811315
249	0xbd9daeb8	-0.076993406
250	0x3dc83210	0.09775174
251	0x3e6fb6f6	0.23409638
252	0xbea14fcc	-0.31506193
253	0xbe1d3018	-0.15350378
254	0x3db18d09	0.086694784
255	0xbcf7d9bc	-0.030255191

dense_1/bias:0 f4 [10]
0	0xbd71271a	-0.05887518
1	0x3c143147	0.009044952
2	0xbba8e2df	-0.0051539983
3	0xbca599a8	-0.02021487
4	0x3c9dd2c2	0.019265536
5	0x3caf97d8	0.02143471
6	0x3b78db62	0.003797256
7	0x3c9bd219	0.01902108
8	0x3c280d00	0.010257006
9	0x3c8e2b3b	0.017354598

dense/kernel:0 f4 [128, 64]
0	0x3e1e5970	0.15463805
1	0xbde751f6	-0.1129493
2	0x3e157ef7	0.14599214
3	0xbde7c294	-0.1131641
4	0x3e1cc472	0.15309313
5	0xbdcc4902	-0.09974863
6	0xbd91af8a	-0.071135595
7	0x3db85517	0.090006046
8	0x3cf1ae71	0.029502125
9	0xbe2be815	-0.16787751
10	0x3c9bbe49	0.019011633
11	0xbe1411db	-0.14459936
12	0xbd07cf75	-0.03315683
13	0xbcbbd7c6	-0.022930037
14	0xbdebaea9	-0.11507923
15	0xbda75947	-0.08171325
16	0xbe12ea92	-0.14347294
17	0x3d06ae36	0.032880984
18	0xbd68cd20	-0.056836247
19	0x3df5914c	0.11990604
20	0xbd870c5e	-0.06594156
21	0x3c480d5f	0.012210219
22	0xbda76e35	-0.08175317
23	0x3d69686b	0.056984346
24	0xbe34a152	-0.17639664
25	0xbd6346a9	-0.05548731
26	0x3c2c87d9	0.0105304355
27	0x3de47ab0	0.11156213
28	0xbe0efc74	-0.1396349
29	0xbd74a531	-0.05972785
30	0x3b95c24b	0.0045702807
31	0xbbbf5319	-0.0058387634
32	0xbe0feade	-0.14054438
33	0x3e19cabe	0.15018746
34	0x3e23a8c4	0.15982348
35	0x3d4ec639	0.05048201
36	0x3dcac027	0.098999314
37	0xbcb09b1c	-0.021558337
38	0x3db94e89	0.090481825
39	0x3e32e256	0.17469153
40	0xbddb269e	-0.10700725
41	0x3e1ea73e	0.15493485
42	0x3e333a68	0.17502749
43	0x3dd64e07	0.10464101
44	0xbcba03b5	-0.022706846
45	0x3d575196	0.05256804
46	0xbd60b566	-0.054860495
47	0x3d06e695	0.032934744
48	0x3e0b85f7	0.13625322
49	0x3da40b2f	0.080099456
50	0xbcd6f5ec	-0.026240312
51	0xbd82b84a	-0.063828066
52	0x3cb0daa7	0.021588637
53	0x3dffb718	0.12486094
54	0xbe2e6e97	-0.17034374
55	0xbcc502aa	-0.024049122
56	0x3e3a80e0	0.18213224
57	0x3c820215	0.015870133
58	0x3c3f1d59	0.011664712
59	0x3e0150bc	0.12628454
60	0xbceaedd0	-0.028677851
61	0x3dcbf8a3	0.09959533
62	0xbc44d505	-0.012013678
63	0x3dc66c59	0.096886344
64	0xbcec493c	-0.028843515
65	0xbd586f64	-0.052840605
66	0x3dd9b659	0.10630483
67	0x3a30126d	0.0006716613
68	0x3c0fd095	0.008777757
69	0xbd94093c	-0.07228324
70	0xbe0af4e8	-0.13569987
71	0x3e08e170	0.13367248
72	0xbe03ffb7	-0.12890516
73	0xbd90df2d	-0.070738174
74	0xbcf0b154	-0.029381432
75	0xbd92707e	-0.071503624
76	0x3e13abd8	0.14421022
77	0x3cc85de4	0.024458833
78	0x3e45731d	0.19282193
79	0xbdcdb53a	-0.10044332
80	0xbcdc308b	-0.026878616
81	0x3de05138	0.10952991
82	0x3e0b2f4f	0.13592266
83	0xbe30a643	-0.17250924
84	0x3e01aa9c	0.12662739
85	0x3d995ddd	0.07488606
86	0x3e1afe79	0.15136136
87	0xbdecfda9	-0.11571819
88	0xbce6c052	-0.028167877
89	0x3d273583	0.040822517
90	0x3e178f5b	0.1480078
91	0xbe0b6fe0	-0.13616896
92	0x3d1d5d88	0.038419276
93	0x3dacbc3e	0.08434342
94	0xbe34e649	-0.17665972
95	0xbd10782d	-0.03527086
96	0x3c939ef2	0.018020127
97	0xbd2501ad	-0.0402848
98	0x3d783b26	0.060603283
99	0xbe019a33	-0.12656479
100	0xbe01e634	-0.12685472
101	0x3ce5469d	0.027987773
102	0xbd5f0ed3	-0.054457497
103	0x3d900bf3	0.07033529
104	0x3e32d61a	0.17464486
105	0xbd3e8e16	-0.046522222
106	0x3d273315	0.0408202
107	0x3c90b7ec	0.017665826
108	0x3e77f845	0.24215801
109	0xbb094058	-0.0020942893
110	0xbe33c9ae	-0.17557403
111	0xbde193b7	-0.110145025
112	0xbd653ed4	-0.05596812
113	0xbe6763a4	-0.22596604
114	0xbdba98b3	-0.09111156
115	0xbcf6e101	-0.030136587
116	0xbe0ca04b	-0.13733022
117	0x3cc9307f	0.024559258
118	0xbdf20ccd	-0.11818848
119	0xbe521d06	-0.20518884
120	0x3df0d522	0.11759402
121	0xbe2dc718	-0.1697048
122	0xbe120f48	-0.14263642
123	0x3d812f50	0.06307852
124	0x3dbfce3d	0.09365509
125	0xbd7d94fa	-0.061909653
126	0xbca0e69c	-0.019641213
127	0x3c62d5f6	0.013844958
128	0x3e07c4cd	0.13258667
129	0xbcf1c790	-0.029514104
130	0x3d446d4a	0.04795579
131	0xbd426faa	-0.047469772
132	0x3df50291	0.1196338
133	0xbd6aa947	-0.05729034
134	0xbdc55edf	-0.09637236
135	0xbdb99966	-0.090624616
136	0xbbb13a65	-0.0054085725
137	0x3e07d492	0.13264683
138	0xbd7d2f1b	-0.0618125
139	0x3d638543	0.05554701
140	0x3de6e7ff	0.112747185
141	0x3e005685	0.12533005
142	0x3ca0bbbb	0.019620767
143	0x3dc84a58	0.09779805
144	0x3da30e73	0.0796174
145	0x3df62922	0.12019564
146	0xbc106c8d	-0.008814943
147	0xbd71b9a0	-0.059014916
148	0x3e0cf1f1	0.13764168
149	0xbc88432b	-0.01663359
150	0x3bc380df	0.0059662904
151	0xbda5c3a0	-0.08093953
152	0x3dcccaf6	0.09999649
153	0xbdb40916	-0.087907955
154	0x3bcf5b5e	0.0063280305
155	0x3e211f85	0.1573468
156	0x3b7611c6	0.0037547215
157	0x3dd6c61a	0.104870036
158	0xbc657c90	-0.014006749
159	0xbe197d4b	-0.14989202
160	0xbd7eac5d	-0.062176097
161	0x3c0c143c	0.008549746
162	0x3e273520	0.1632886
163	0xbd294fb4	-0.041335776
164	0xbe129c11	-0.14317347
165	0xbe092c55	-0.13395818
166	0x3dfa1ee8	0.12212926
167	0x3e0ade05	0.13561256
168	0xbdeaac30	-0.114586234
169	0xbdb57517	-0.08860224
170	0xbe28ca6c	-0.16483468
171	0xbbda20c6	-0.006656739
172	0xbddbe289	-0.107365675
173	0x3d9de178	0.077090204
174	0x3de514ab	0.11185583
175	0xbbb348ca	-0.0054713236
176	0xbd1bfe29	-0.038084183
177	0xbe2197d3	-0.15780573
178	0xbe0906d3	-0.1338151
179	0x3c7bb492	0.015362876
180	0x3e32279d	0.17397924
181	0x3c60b019	0.01371386
182	0xbe1ed398	-0.15510404
183	0x3dafc144	0.08581784
184	0x3dab93e7	0.083778195
185	0x3d5bc8ce	0.0536583
186	0xbe2328ee	-0.15933582
187	0x3e007d3e	0.12547776
188	0x3c9fecc2	0.019522075
189	0x3e2116ee	0.15731403
190	0xbd38a30e	-0.045077376
191	0x3e0faab3	0.1402996
192	0x390a04a7	0.00013162439
193	0x3e00b817	0.12570225
194	0xbdc6e56f	-0.0971173
195	0x3d0094c4	0.031391874
196	0x3e3b66dd	0.18300958
197	0xbd85bf8e	-0.06530677
198	0x3d20e468	0.039280325
199	0xbd86fb28	-0.06590873
200	0x3d8968d7	0.0670945
201	0x3e293c5d	0.16526933
202	0x3e0518fc	0.12997812
203	0x3e0f7e27	0.14012967
204	0xbd340d05	-0.04395773
205	0xbe1024d3	-0.14076547
206	0x3e19cb7f	0.15019034
207	0xbbbb3be2	-0.0057139257
208	0xbd9ff59c	-0.07810518
209	0x3db0b8b7	0.086289816
210	0x3daf299e	0.0855286
211	0x3de2d7c5	0.11076311
212	0xbdc4215b	-0.095766746
213	0x3e04499a	0.12918702
214	0xbd16acc7	-0.036785867
215	0x3de35601	0.11100388
216	0x3a37079b	0.00069820293
217	0xbdb2edfb	-0.087367974
218	0x3e24060c	0.16017932
219	0xbdabe61d	-0.083935
220	0x3c89619e	0.01677018
221	0x3e2bfab8	0.1679486
222	0x3b9e56ab	0.004832109
223	0xbd5c4057	-0.053772297
224	0xbd2c4e19	-0.042066667
225	0x3d3b8fe7	0.045791533
226	0xbced8406	-0.028993618
227	0x3d086557	0.03329977
228	0x3e1517cc	0.14559859
229	0xbc04615f	-0.008079856
230	0xbdaf15ae	-0.08549057
231	0xbdf40e73	-0.119168185
232	0xbe008da2	-0.12554029
233	0x3e3cb0cf	0.18426822
234	0x3d836258	0.06415242
235	0xbc892a9e	-0.016743954
236	0x3c22059a	0.009889031
237	0xbd74c5cb	-0.059758943
238	0xbdf0d9e9	-0.11760313
239	0xbdd5f7b6	-0.10447638
240	0xbdb51683	-0.088421844
241	0xbd0be907	-0.03415778
242	0x3e032963	0.12808757
243	0xbdba8afc	-0.091085404
244	0xbe2bc219	-0.16773261
245	0xbe09d24a	-0.13459125
246	0xbe1a8fb1	-0.15093876
247	0xbd936a37	-0.07197993
248	0x3e2863fe	0.16444394
249	0x3dd4e34c	0.10394916
250	0xbdbd3d4f	-0.09240209
251	0x3d8dab82	0.06917478
252	0x3df3c4cf	0.11902773
253	0x3d6a01f1	0.057130758
254	0xbd4bb1cc	-0.049730107
255	0x3e16bcae	0.14720413

dense/bias:0 f4 [64]
0	0x3c1fa89d	0.00974479
1	0x3c9c163f	0.019053577
2	0xbc9464aa	-0.018114407
3	0xbcfeda20	-0.03110987
4	0xbca8f4e6	-0.02062459
5	0x3cc39a94	0.02387742
6	0xbb61ae9a	-0.0034436346
7	0xbc818529	-0.015810566
8	0xbc67ee63	-0.014155957
9	0x3bf8fd59	0.007598561
10	0x3c834e14	0.016028441
11	0x3d3a43cc	0.045474812
12	0x3d0ea127	0.034821656
13	0xbc1d75f9	-0.009610646
14	0xbbfac42f	-0.0076527814
15	0xbb8e4e0c	-0.0043428
16	0x3b39cb8e	0.0028350088
17	0x3be2f5cb	0.0069262735
18	0xbc7fde76	-0.015617004
19	0xbc5dbf27	-0.013534344
20	0x3d1ce445	0.038303632
21	0x3cdadd08	0.026716724
22	0xbc5feb60	-0.013666958
23	0x3c5db37e	0.013531564
24	0x3b7a700d	0.003821376
25	0x3ccd1e33	0.025038814
26	0xbbd65073	-0.006540352
27	0x3b936371	0.0044979383
28	0x39989f48	0.00029110373
29	0x3c7bfe93	0.015380519
30	0x3ceb9bca	0.02876081
31	0x3c946019	0.01811223
32	0xbc9bc102	-0.019012932
33	0x3c892b3b	0.016744247
34	0xbca6ff72	-0.020385478
35	0xbcb80b54	-0.02246634
36	0x3bc421a3	0.005985455
37	0x3cf9ad53	0.030478155
38	0xbb58c9c1	-0.003307924
39	0xbc72773c	-0.0147989355
40	0xbcb6c93a	-0.02231275
41	0x3cb6f3e9	0.022333102
42	0xbce96dd6	-0.028494757
43	0x3d1db086	0.038498424
44	0x3d072477	0.03299376
45	0x3d0396a3	0.03212608
46	0xbcbd54ec	-0.023111783
47	0x3cb5013a	0.022095311
48	0xbcb961f7	-0.022629721
49	0xbbc6c603	-0.0060660853
50	0xbc3b3538	-0.011426263
51	0x3d623bc6	0.055232786
52	0x3d1f45fb	0.038885098
53	0xbbc7b31f	-0.006094351
54	0xbb3f4d9e	-0.002919055
55	0xbc4b8a3f	-0.012423097
56	0xbc814f90	-0.015785009
57	0xbcc07534	-0.023493387
58	0xbca0321d	-0.019555146
59	0xbc39bf7c	-0.011337157
60	0x3c1b3bf0	0.009474739
61	0xbcfb0d61	-0.030646028
62	0xbbe7bd5e	-0.007072135
63	0x3cf8c9e2	0.030369703

conv2d_3/kernel:0 f4 [32, 32, 5, 5]
0	0xbcfe4971	-0.031040879
1	0x3d73007c	0.059326634
2	0x3a9867bf	0.0011627598
3	0x3c3e5366	0.011616563
4	0xbc61f267	-0.013790703
5	0xbb8bd6cd	-0.0042675496
6	0xbce5d428	-0.028055266
7	0xbbbd8486	-0.0057836203
8	0xbd00faba	-0.03148911
9	0xbc2bf0a6	-0.010494387
10	0xbd4828cd	-0.048867036
11	0xbcaa260f	-0.0207701
12	0xbd45a04f	-0.048248585
13	0x3c897e31	0.016783806
14	0x3be2807c	0.006912289
15	0xbc159e6d	-0.00913201
16	0x3d4f6ab4	0.05063887
17	0xbd5404a6	-0.051762246
18	0xbcc8b03f	-0.024498103
19	0xbc52e7aa	-0.012872616
20	0x3c49c9d4	0.012316186
21	0x3d1d9a8a	0.038477458
22	0xbb1c0ab4	-0.002381009
23	0xbc9ed6e1	-0.019389572
24	0xbcef0321	-0.029176297
25	0xbd0680b9	-0.032837603
26	0xbc825372	-0.01590893
27	0x3d6ccff1	0.057815496
28	0x3c52f4b1	0.012875722
29	0x3cb66675	0.022265652
30	0xbd3b31f4	-0.045701936
31	0xbcf0792a	-0.02935465
32	0x3c3f24fd	0.011666534
33	0x3b7539a0	0.003741838
34	0x3d4cb552	0.049977608
35	0x3d69123e	0.056902163
36	0xbd0e5d66	-0.03475704
37	0x3d28a78d	0.041175414
38	0xbbca5918	-0.0061751716
39	0xbc45db3e	-0.012076197
40	0xbd6e9fc6	-0.05825784
41	0xbd92aa98	-0.071614444
42	0xbc7cf187	-0.015438444
43	0x3c5572b0	0.013027832
44	0xbd7f0b9d	-0.062266935
45	0x3d2706fe	0.040778153
46	0xbd80d2db	-0.062902175
47	0xbce4cbf0	-0.027929276
48	0xbd3ed787	-0.04659226
49	0xbd5df17c	-0.054185376
50	0x3d606f20	0.054793477
51	0xbc1f9ffe	-0.009742735
52	0xbc81e676	-0.015856963
53	0x3d4c084f	0.04981261
54	0xbca4b98d	-0.020108009
55	0xbbaaab10	-0.0052083805
56	0x3d540dae	0.05177086
57	0x3d5199f8	0.051172227
58	0x3ca5dfa2	0.020248238
59	0x3c5f9383	0.013646009
60	0x3c8e1eb3	0.017348623
61	0x3ce0e090	0.02745083
62	0x3c68f495	0.014218469
63	0x3d35064b	0.044195455
64	0xbd61ec3c	-0.05515693
65	0xbd80014d	-0.06250248
66	0x3c105949	0.00881035
67	0x3d0cadba	0.034345366
68	0xbc8e67fc	-0.017383568
69	0xbaa24c7f	-0.0012382417
70	0xbd49a0ae	-0.0492255
71	0x3c8f4ed4	0.017493643
72	0x3ce6666c	0.02812501
73	0xbd020e54	-0.031751946
74	0xbcc2e0ad	-0.023788774
75	0x3d7731b6	0.060350142
76	0xbd2081c7	-0.039186265
77	0x3d554f70	0.05207771
78	0x3d5f0010	0.05444342
79	0x3cb096ef	0.021556346
80	0xbc2a0e64	-0.010379408
81	0x3d677c58	0.056515068
82	0x3d6bbdeb	0.057554167
83	0xbd18fff8	-0.037353486
84	0x3d582872	0.052772947
85	0xbd3d8f60	-0.04627931
86	0xbca35839	-0.019939529
87	0x3c42ba74	0.011885274
88	0xbc97dd9b	-0.018538287
89	0xbd5f71a5	-0.05455174
90	0xbd6b352a	-0.057423748
91	0xbca587f9	-0.020206438
92	0xbd7ff5ce	-0.062490277
93	0x3cf8931c	0.030343585
94	0x3d38137e	0.044940464
95	0xbd831378	-0.06400198
96	0x3c5dc392	0.013535397
97	0xbd9470d5	-0.072480835
98	0x3c97cc08	0.018529907
99	0x3d0434e9	0.03227702
100	0x3d3e222b	0.046419304
101	0xbc00aa94	-0.007853169
102	0xbd41ee12	-0.047346182
103	0xbcebefbc	-0.028800838
104	0xbd161c4b	-0.036648076
105	0xbc9c309b	-0.019066146
106	0xbcaf7f87	-0.021423114
107	0x3d19ccdd	0.03754889
108	0xbc063f8d	-0.008193863
109	0x3cd1d7c5	0.025615582
110	0xbcc1858c	-0.02362325
111	0x3c78306e	0.015148265
112	0xbc6c037b	-0.014405127
113	0xbcdde59d	-0.027087027
114	0x3d083099	0.03324947
115	0x3aab2fd8	0.0013060523
116	0xbd1869f5	-0.037210423
117	0x3c28f011	0.010311143
118	0xbd504e7a	-0.05085609
119	0xbca3b3d9	-0.019983219
120	0x3c7e90a1	0.015537412
121	0x3d242a09	0.04007915
122	0xbcc013cb	-0.023446938
123	0x3d8fba7a	0.070179895
124	0xbb0a56a2	-0.0021108766
125	0x3db67b91	0.08910287
126	0x3d3bbde9	0.04583541
127	0x3d65bac2	0.05608631
128	0x3bb962eb	0.005657544
129	0x3d35f4cc	0.04442291
130	0xbc03df67	-0.008048869
131	0x3d6963b1	0.05697984
132	0xbd71d01d	-0.059036363
133	0xbd6f8e03	-0.058485042
134	0xbd3bfc01	-0.045894627
135	0xbb9577fb	-0.004561422
136	0x3d2a648c	0.041599795
137	0xbd85b91a	-0.06529446
138	0x3b263d99	0.0025366305
139	0x3d910d30	0.070825934
140	0x3d007896	0.031365
141	0xbd734d5d	-0.05939995
142	0xbd808fbe	-0.06277417
143	0xbd54599e	-0.051843278
144	0xbd06d885	-0.032921333
145	0x3ce6f858	0.028194591
146	0xbc940c1e	-0.018072184
147	0xbd41bd40	-0.047299623
148	0x3d159f5d	0.036528934
149	0xbaadfaef	-0.0013273637
150	0x3b433f8e	0.002979252
151	0x3d6c0097	0.05761775
152	0x3c0a392b	0.0084364815
153	0xbd6d3e48	-0.057920724
154	0x3c59a7b0	0.013284609
155	0x3cf3af2d	0.029746616
156	0xbc85225e	-0.01625174
157	0x3bd13340	0.0063842833
158	0xbcd0966b	-0.02546235
159	0x3d6a3c98	0.057186693
160	0x3ca3e7fe	0.020008083
161	0xbc07ef68	-0.008296825
162	0x3d5ec88a	0.054390468
163	0xbd83f94e	-0.064440355
164	0xbd725d6e	-0.059171133
165	0x3cef93eb	0.029245337
166	0xbcc5b3f7	-0.024133665
167	0xbd299f11	-0.041411463
168	0xbcf4889c	-0.029850297
169	0xbaeba068	-0.0017976882
170	0x3d49d754	0.04927762
171	0x3d1f46df	0.038885947
172	0xbd55a271	-0.05215687
173	0x3b883538	0.004156735
174	0xbd21faf3	-0.039545964
175	0xbbc15eae	-0.0059011793
176	0x3b8b9474	0.0042596404
177	0xbd784d04	-0.060620323
178	0xb88f2008	-6.824738e-05
179	0xbd86b911	-0.06578267
180	0x3bce9a37	0.006305005
181	0x3bb05c87	0.005382124
182	0xbc8feb51	-0.017568262
183	0xbd81ac50	-0.06331694
184	0x3c949092	0.018135343
185	0x3cfdd7c3	0.030986672
186	0x3d54962c	0.051901028
187	0xbd1bb2bd	-0.038012255
188	0x3b0502ce	0.0020295861
189	0x3b999173	0.0046865284
190	0x3d5ca3fb	0.05386732
191	0x3cdf43a2	0.02725393
192	0x3d297e44	0.041380182
193	0x38b94378	8.8340545e-05
194	0x3c287515	0.010281821
195	0xbc94ab05	-0.018147955
196	0xbca44164	-0.020050712
197	0xbd0dc177	-0.03460833
198	0x3c724d8d	0.014788997
199	0xbcfeb667	-0.031092836
200	0x3d7bfc24	0.061519757
201	0xbd7307d6	-0.059333645
202	0x3be20f79	0.006898817
203	0x3ce4d22e	0.027932253
204	0xbd25bc67	-0.040462878
205	0xbc60ca62	-0.013720127
206	0x3cf9522f	0.030434696
207	0xbd2cc6e7	-0.042181876
208	0xbc789aaf	-0.015173598
209	0xbd1b7151	-0.037949864
210	0xbc4bb32e	-0.0124328565
211	0xbc52752e	-0.012845321
212	0x3b8d8390	0.004318662
213	0xbc5b1eec	-0.013374072
214	0xbd7c3d99	-0.06158218
215	0x3d7e6f3e	0.062117808
216	0xbd449419	-0.0479928
217	0x3cfc9e06	0.03083707
218	0xbc94af92	-0.018150125
219	0x3d19de62	0.037565596
220	0x3d56fb60	0.052485824
221	0x3d81fe1d	0.063472964
222	0xbd2a5394	-0.041583613
223	0xbd666fa3	-0.05625881
224	0x3d404068	0.046936423
225	0x3d349d32	0.044095226
226	0x3d543daf	0.05181664
227	0xbd19c526	-0.03754153
228	0x3c39d8f9	0.011343234
229	0xbd69e9db	-0.057107788
230	0xbd6ac214	-0.057313994
231	0xbb8e78d5	-0.0043479004
232	0x3d2a8ab6	0.04163619
233	0xbca6c35c	-0.020356826
234	0x3d396260	0.045259833
235	0x3d232dc5	0.03983857
236	0xbd7e6225	-0.062105317
237	0x3b5412f3	0.0032359927
238	0x3d385127	0.044999268
239	0xbb76b536	-0.0037644631
240	0xbd1e9ae5	-0.038721938
241	0xbcc96e8b	-0.024588844
242	0x3cb78662	0.022402946
243	0x39156503	0.00014247377
244	0x3c88a7d1	0.016681584
245	0x3c6f4263	0.01460323
246	0xbd36bcc5	-0.04461362
247	0x3d47e4f3	0.048802327
248	0xbd1dbd63	-0.03851069
249	0x3c7c1cbb	0.015387709
250	0x3d8d4437	0.068977766
251	0x3d5a1006	0.053237937
252	0x3d121f1e	0.035674207
253	0x3d1069f8	0.03525731
254	0xbaf345b6	-0.0018560204
255	0x3d0264e1	0.031834487

conv2d_3/bias:0 f4 [32]
0	0x3b1861b8	0.0023251604
1	0x3a40b21d	0.00073507597
2	0xbb1aa377	-0.0023595968
3	0x3ca7962a	0.020457346
4	0x3a7222dc	0.0009236762
5	0x3b4a73b5	0.003089172
6	0xbb0a74b4	-0.002112669
7	0x3b896078	0.004192408
8	0x3c1baf13	0.00950219
9	0x3c7aa167	0.01529727
10	0xbbe44d53	-0.0069672256
11	0xbc86d770	-0.01646015
12	0x3d01bfd5	0.031677086
13	0xbb3768ea	-0.0027986118
14	0x3c1ab7d5	0.009443243
15	0x3c61e04a	0.013786385
16	0xbc55e29a	-0.013054514
17	0xbc1d8817	-0.009614966
18	0xb9bbc8de	-0.00035817077
19	0xbc22f3cb	-0.00994582
20	0xbc8b3984	-0.016995199
21	0xba5060e3	-0.00079490076
22	0xbbf864f3	-0.0075803935
23	0x3b04572f	0.0020193567
24	0x3c082cb7	0.008311442
25	0xbc0baf4a	-0.008525679
26	0x3c108fd9	0.008823358
27	0xba86109e	-0.0010228341
28	0x3b805ac8	0.003917072
29	0xb8cf8cfd	-9.89679e-05
30	0x3b260c98	0.0025337096
31	0x3c095f4f	0.00838454

conv2d_2/kernel:0 f4 [32, 32, 5, 5]
0	0xbd08ecbe	-0.0334289
1	0xbd1e7381	-0.03868437
2	0xbd424bd2	-0.04743559
3	0x3cc3bfe6	0.023895215
4	0x3ce35e00	0.027754784
5	0xbdf6e25b	-0.12054893
6	0xbd8ee5b7	-0.069774084
7	0x3ce19f5e	0.027541813
8	0x3bb49487	0.00551087
9	0x3cf18db0	0.029486507
10	0xbcd15c3c	-0.025556676
11	0xbdc3bfe7	-0.09558087
12	0xbd3702ea	-0.044680513
13	0x3d9ae4b9	0.07563157
14	0x3d8ade53	0.06780686
15	0xbc860191	-0.016358169
16	0xbc285ad0	-0.010275558
17	0xbcc1b95a	-0.023647953
18	0xbd033c6f	-0.032040056
19	0x3c5527a9	0.013009944
20	0xbd53ed86	-0.051740192
21	0x3d044d65	0.03230037
22	0x3c95ffa1	0.01831037
23	0xbb392af4	-0.0028254362
24	0xbbe2d1c8	-0.0069219805
25	0x3d8774e6	0.066140935
26	0x3d7511de	0.059831493
27	0x3d375f73	0.04476876
28	0xbc8b07ea	-0.016971547
29	0x3d436bba	0.047710158
30	0x3ca1b3a1	0.019738974
31	0x3d51a8ce	0.051186375
32	0x3d27a161	0.040925387
33	0xbda20092	-0.07910265
34	0x3ce40e1b	0.027838757
35	0xbd4e3e2a	-0.050352253
36	0xbd83de29	-0.06438858
37	0x3c5bbf21	0.013412268
38	0xbcb60673	-0.022219872
39	0xbd342737	-0.04398271
40	0xbc1bfd82	-0.00952089
41	0xbd30f928	-0.043206364
42	0xbd06ba3c	-0.03289245
43	0x3d885844	0.0665746
44	0x3d0029d3	0.031289887
45	0x3da1319c	0.0787079
46	0xbd08df6b	-0.033416193
47	0x3c652c6e	0.013987644
48	0xbb19ef7f	-0.0023488698
49	0x3dc57591	0.09641565
50	0x3c3fd96e	0.011709554
51	0xbbf2bf93	-0.0074080913
52	0xbd6b4867	-0.057442095
53	0x3d07742f	0.033069786
54	0x3cbc9e8e	0.023024824
55	0x3801ae3d	3.091827e-05
56	0xbd5a1558	-0.05324301
57	0x3c37d4eb	0.011220197
58	0xbd51c393	-0.051211905
59	0x3bd3422c	0.0064470973
60	0xbd76a9e0	-0.0602206
61	0xbb42a43b	-0.002969994
62	0x3d4d9d73	0.050198983
63	0xbcb22667	-0.021746827
64	0x3d312d26	0.043255948
65	0xbca22501	-0.019793035
66	0xbc6b2f30	-0.014354512
67	0x3d7bf062	0.061508544
68	0x3d112b4e	0.03544169
69	0x3cc3e81a	0.023914386
70	0xbcc373bb	-0.023858896
71	0x3d804f79	0.06265158
72	0x3da9c7a6	0.08290033
73	0x3d343f7a	0.04400585
74	0x3c9a16f7	0.018809779
75	0xbd5abc77	-0.05340239
76	0xbd5a2add	-0.053263534
77	0xbd31d953	-0.043420147
78	0xbd9d5fb0	-0.076842666
79	0xbcc627a3	-0.024188822
80	0xbbd25e0d	-0.006419903
81	0xbd0124ab	-0.03152911
82	0x3caf229a	0.021378804
83	0xbc910ed4	-0.017707266
84	0xbb6dc6fa	-0.003628193
85	0xbcd1e52a	-0.02562197
86	0xbd2adf79	-0.041717026
87	0x3ca7d75b	0.020488432
88	0x3c368708	0.011140592
89	0x3caa6cfa	0.020803917
90	0x3d75b562	0.059987433
91	0x3c82c675	0.015963772
92	0xbd86378e	-0.06553565
93	0xbcf4a81b	-0.029865315
94	0x3ca838ce	0.0205349
95	0x3d1aa4c0	0.037754774
96	0x3d9ad96f	0.075610034
97	0x3d054074	0.03253217
98	0x3d858b68	0.0652073
99	0xbc7faf5c	-0.015605774
100	0xbd8b75a3	-0.06809547
101	0xbd63f919	-0.05565748
102	0xbcf94ed7	-0.030433102
103	0x3d11ea3c	0.035623774
104	0x3c904e02	0.017615322
105	0xbc6c7da2	-0.01443425
106	0x3c022cd7	0.007945261
107	0xbd130321	-0.035891656
108	0xbd282174	-0.04104753
109	0xbd7dd575	-0.061971147
110	0x3cdfedf6	0.027335148
111	0x3c3fe5d8	0.011712514
112	0xbd6aa0f6	-0.05728241
113	0xbd750464	-0.05981864
114	0x3cbda1ac	0.02314838
115	0x3b7e2c7c	0.003878384
116	0x3ced224c	0.028947018
117	0xbd3ee53a	-0.046605326
118	0xbd91608f	-0.07098495
119	0xbdbaebfc	-0.09127042
120	0xbd91c231	-0.07117117
121	0xbd1b006d	-0.037842203
122	0x3d287349	0.04112557
123	0xbc4f9097	-0.01266875
124	0xbd34c26e	-0.044130735
125	0xbdab9321	-0.08377672
126	0xbdd79aaf	-0.105275504
127	0xbc702afa	-0.014658684
128	0xbd9c5143	-0.07632687
129	0x3d043523	0.032277238
130	0xbdae6479	-0.085152574
131	0xbda5d6da	-0.0809762
132	0xbdcf2673	-0.101147555
133	0xbc8c08a4	-0.017093964
134	0x3c012d77	0.007884375
135	0xbd9c4a26	-0.0763133
136	0xbd8e5d8c	-0.069514364
137	0xbb97a783	-0.0046281232
138	0x3d792e31	0.060835067
139	0x3d3c19a1	0.04592288
140	0xbd6ca029	-0.057769928
141	0x3bd1c5a2	0.0064017335
142	0xb9a8bf8e	-0.00032186176
143	0x3d4bebcf	0.04978543
144	0x3dc5bb53	0.0965487
145	0xbd4b5658	-0.04964289
146	0xbcb5471f	-0.02212864
147	0x3ce693d8	0.02814667
148	0xbc870c58	-0.016485378
149	0x3d9e3f3b	0.07726904
150	0xbd86beb4	-0.065793425
151	0xbb754514	-0.0037425207
152	0xbd1867c7	-0.037208345
153	0xbd283c66	-0.041073225
154	0x3d110d0a	0.035412826
155	0xbcfd760c	-0.030940078
156	0xbdbea324	-0.0930846
157	0xbcf86807	-0.030323042
158	0xbd744eee	-0.059645586
159	0x3d9711ac	0.073764175
160	0xbd515696	-0.051107965
161	0x3d0b5b86	0.03402283
162	0x3d13f8a0	0.03612578
163	0x3cb284c5	0.021791825
164	0x3bcaae91	0.0061853607
165	0x3bbd5be0	0.0057787746
166	0x3c6dc34c	0.014511894
167	0x3d31497e	0.04328298
168	0xbc3a7229	-0.011379757
169	0x3d861329	0.06546623
170	0xbd19a49d	-0.037510503
171	0x3d2542f3	0.04034705
172	0x3da7f912	0.08201803
173	0x3ca661e3	0.020310348
174	0x3d45d52b	0.048298996
175	0xbcdcf289	-0.026971119
176	0xbcbc9c00	-0.023023605
177	0xbc4d3774	-0.012525428
178	0xbb5a2bc5	-0.0033290249
179	0x3d6084af	0.054814037
180	0xbd258896	-0.04041346
181	0x3d8ebc05	0.06969456
182	0xbb2fa96e	-0.0026803869
183	0xbd813297	-0.06308477
184	0x3bf33b0f	0.007422812
185	0x3d531d11	0.05154139
186	0x3d4bad79	0.049725983
187	0xbd53429a	-0.051577188
188	0xbd5fde2f	-0.05465525
189	0xbd95dbe7	-0.07317334
190	0xbd30eda6	-0.04319539
191	0x3d60eee2	0.054915316
192	0xbc4fca92	-0.012682574
193	0xbc117a38	-0.008879237
194	0xbcc6996e	-0.024243083
195	0x3d2c0e25	0.042005677
196	0xbcff4b85	-0.03116394
197	0xbcf58797	-0.02997188
198	0x3d344d5f	0.0440191
199	0x3d4eddc1	0.05050445
200	0xbdc1c3e1	-0.09461189
201	0xbca4307e	-0.020042654
202	0xbd7972f6	-0.06090065
203	0x3c8dae50	0.017295033
204	0x3d3988ad	0.04529636
205	0xbcac0a7f	-0.021001099
206	0x3c9d7c9a	0.019224454
207	0xbc20423a	-0.009781415
208	0x3d6b7974	0.057488874
209	0x3d7f7555	0.062367756
210	0xbc1a6230	-0.009422824
211	0x3d3d670b	0.046240848
212	0x3b864668	0.0040977485
213	0xbcbf0543	-0.023317939
214	0x3cacd7d9	0.021099018
215	0x3d83856c	0.064219326
216	0x3c99a554	0.018755592
217	0x3bf2c616	0.0074088676
218	0xbc2f3561	-0.010693879
219	0xbd521ab0	-0.051294982
220	0x3de577e6	0.112045094
221	0x3cd85f2b	0.026412567
222	0x3d9c5c7a	0.07634826
223	0x3d104232	0.03521938
224	0xbd2778ee	-0.040886812
225	0x3bb8c03f	0.005638152
226	0xbd06b603	-0.032888424
227	0xbd92839e	-0.0715401
228	0xbc7f42c7	-0.015579886
229	0xbd3e2a4c	-0.046427056
230	0xbd05d8b4	-0.032677367
231	0xbddb285e	-0.10701059
232	0xbcc70d23	-0.024298256
233	0x3bc35e22	0.0059621492
234	0x3d0d77ac	0.034537956
235	0xbd17934d	-0.03700571
236	0xbc344324	-0.011002336
237	0xbd5df17c	-0.054185376
238	0xbd1450b7	-0.03620979
239	0x3d8606d1	0.06544269
240	0x3c0b90e8	0.008518435
241	0x3cce8614	0.025210418
242	0x3cedc06d	0.02902242
243	0x3c2c8506	0.010529762
244	0x3b43c0d9	0.0029869585
245	0xbd04f431	-0.03245944
246	0xbc974a48	-0.018468037
247	0x3dd671f5	0.10470954
248	0x3cb83bf2	0.022489522
249	0x3c912e63	0.017722314
250	0x3d40116c	0.046891615
251	0x3d189260	0.03724897
252	0x3cff3b3d	0.031156177
253	0xbd5bc145	-0.053651113
254	0xbd221ea6	-0.03958001
255	0x3d055c58	0.03255877

conv2d_2/bias:0 f4 [32]
0	0x3c2fa9bd	0.010721621
1	0xbcea3424	-0.028589316
2	0xbc81f753	-0.015865004
3	0xbcf07e1e	-0.029357012
4	0x3bb5700a	0.0055370377
5	0xbcec6bdd	-0.028860027
6	0xbbba1943	-0.005679281
7	0xbb9e6634	-0.004833961
8	0x3a627163	0.0008638112
9	0xbc76ded3	-0.015067774
10	0xbc222a66	-0.009897804
11	0xbc8332bf	-0.016015409
12	0xbc9bf81c	-0.019039206
13	0xbcf8c5d2	-0.030367766
14	0xbc228785	-0.009920006
15	0xbbdc7272	-0.00672751
16	0xbc7f3519	-0.015576624
17	0x3c440ad7	0.011965475
18	0xbba2e257	-0.0049708295
19	0xbc02f05a	-0.007991875
20	0xbc20b810	-0.009809509
21	0xbc0a995e	-0.008459417
22	0x3c7395bf	0.014867245
23	0xbc9f70ef	-0.01946303
24	0xbc2bcf1d	-0.010486391
25	0xbd0c6394	-0.034274653
26	0xbc7eb7d3	-0.015546757
27	0xbb8d60bb	-0.0043145097
28	0xbce3479c	-0.027744107
29	0xbd12cf2b	-0.035842102
30	0xbc163a71	-0.009169207
31	0xbc78e3e6	-0.015191054

conv2d_1/kernel:0 f4 [32, 32, 5, 5]
0	0x3c6dcb6b	0.014513831
1	0xbd021c8b	-0.031765502
2	0x3cbf146c	0.023325168
3	0xbcf16db7	-0.029471261
4	0x3d4774df	0.04869544
5	0xbd8ec4f4	-0.069711596
6	0x3a5ab200	0.0008342564
7	0xbd6bfc2f	-0.057613548
8	0xbb1aa3f0	-0.002359625
9	0x3da08341	0.07837535
10	0x3c171f0e	0.009223713
11	0x3c8a9657	0.01691739
12	0xbce5a751	-0.028033884
13	0xbd1a3a26	-0.03765311
14	0x3c3732fa	0.011181587
15	0xbd23c5a0	-0.03998339
16	0xbc548d45	-0.012973134
17	0xbc63cb45	-0.013903444
18	0xbd05496f	-0.032540735
19	0x3d73791b	0.059441667
20	0xbd08986e	-0.033348493
21	0xbd97304e	-0.0738226
22	0xbc465d3e	-0.012107192
23	0x3d06b81a	0.032890417
24	0x3c76ec6e	0.015071018
25	0xbd8b3b1e	-0.06798385
26	0x3d2ee4a1	0.042698506
27	0x3cb82f00	0.022483349
28	0x3b119eba	0.0022219853
29	0xbcaa1054	-0.020759739
30	0xbd4f286b	-0.050575655
31	0xbd3aedfa	-0.04563711
32	0x3b86b211	0.0041105826
33	0xbcb840be	-0.022491809
34	0x3cfc4386	0.030793916
35	0x3c83b0c5	0.016075501
36	0xbbc92d6d	-0.0061394484
37	0x3b364eec	0.0027818037
38	0x3c18f04b	0.009334634
39	0xbd25aaab	-0.040445965
40	0xbd5b9bc1	-0.053615335
41	0x3c39ed79	0.011348122
42	0x3d8b8dcd	0.06814156
43	0xbc488251	-0.012238101
44	0x3d16f0e0	0.03685081
45	0x3cdc0efb	0.026862612
46	0x3cd087b8	0.02545534
47	0x3d6fe0d6	0.05856403
48	0x3cd802f6	0.0263686
49	0xbd4154ff	-0.0472002
50	0x3bb7ac6d	0.0056052716
51	0x391f3afe	0.00015185398
52	0xbd4654e8	-0.048420817
53	0x3d4b60fa	0.04965303
54	0x3d6eba4e	0.058283143
55	0xbd4720f2	-0.048615403
56	0xbdd52a7f	-0.10408496
57	0xbd106317	-0.03525075
58	0x3c2b87f9	0.01046943
59	0xbc8474d8	-0.016168997
60	0xbab30bd3	-0.001366014
61	0xbd9f84f9	-0.077890344
62	0xbcd2421d	-0.02566629
63	0x3c113bc7	0.00886435
64	0x3d0191c4	0.031633154
65	0xbd4ab683	-0.049490463
66	0xbdaf84f0	-0.08570278
67	0xbd2a11dc	-0.04152094
68	0x3c4fb945	0.012678449
69	0x3d565a27	0.05233207
70	0xbd395cb3	-0.04525442
71	0xbc956bf2	-0.018239949
72	0xbd5047ce	-0.05084973
73	0xbca3c417	-0.019990964
74	0x3d0ad166	0.033891104
75	0x3d55cca1	0.052197102
76	0x3d931be6	0.071830556
77	0xbb25b821	-0.0025286751
78	0x3d34f1e1	0.044175986
79	0xbd719038	-0.05897543
80	0xbb1eabf8	-0.0024211388
81	0x3d6df5f0	0.058095872
82	0xbd753aec	-0.059870645
83	0x3ca67445	0.020319114
84	0x3cc624a3	0.024187392
85	0xbc53730c	-0.012905847
86	0xbb2deb7c	-0.0026538065
87	0x3c51c1d2	0.012802558
88	0xbd555c4c	-0.052089974
89	0xbd85175f	-0.06498598
90	0xbca98b8d	-0.020696426
91	0xbcb28409	-0.021791475
92	0xbb8554b7	-0.0040689367
93	0x3d452732	0.048133083
94	0x3cb4cf5b	0.022071531
95	0x3c828369	0.015931802
96	0xbd28aab1	-0.04117841
97	0xbd517433	-0.051136207
98	0xbc4444c6	-0.0119792875
99	0xbd267be2	-0.040645488
100	0xbd5416d7	-0.051779594
101	0x3cb0a451	0.021562727
102	0xbce54c18	-0.027990386
103	0xbc04062e	-0.008058114
104	0xbb27ee3f	-0.0025624183
105	0x3bb2188b	0.0054350547
106	0x3d2a91b1	0.04164285
107	0xbd1791cc	-0.037004277
108	0xbc2ae3d1	-0.010430292
109	0x3c2e918c	0.010654818
110	0x3cea7ce3	0.028624004
111	0x3c1c4aef	0.00953935
112	0xbd67d222	-0.056596883
113	0xbd09129d	-0.033465017
114	0xbb04d5dc	-0.0020269072
115	0xbcce3743	-0.025172835
116	0x3cdf2773	0.02724049
117	0xbd7ac598	-0.061223596
118	0xbb9a381b	-0.0047063953
119	0xbc2268fe	-0.009912727
120	0x3dae8809	0.085220404
121	0xbc37099c	-0.011171725
122	0xbd7bcc49	-0.06147412
123	0xbd250ea2	-0.040297158
124	0x3d411151	0.047135655
125	0xbd84a1db	-0.06476184
126	0x3cfdc5f1	0.030978175
127	0xbd162bf5	-0.036663014
128	0xbd5a996e	-0.05336898
129	0xbd29a1cb	-0.041414063
130	0xbcb483b3	-0.022035455
131	0x3cfe079c	0.031009488
132	0x3c45a4ca	0.012063215
133	0xbce4659a	-0.027880479
134	0xbceb8fd4	-0.028755106
135	0xbd422cf4	-0.047406152
136	0x3b7e8c92	0.003884111
137	0xbd2b81eb	-0.041871946
138	0x3d02d339	0.03193972
139	0x3d07f168	0.033189207
140	0x3c1e9adc	0.009680476
141	0x3d7eed28	0.06223789
142	0x3bc42793	0.005986163
143	0x3c18089b	0.009279395
144	0xbc286013	-0.010276812
145	0xbca9a372	-0.02070782
146	0x3d77234a	0.06033639
147	0xbcf797e0	-0.030223787
148	0xbd40699e	-0.046975724
149	0x3d6b183b	0.057396155
150	0xbb9aad46	-0.004720363
151	0x3b9486b1	0.004532658
152	0xbd2d1525	-0.042256493
153	0xbd455017	-0.048172083
154	0x3d3e948d	0.046528388
155	0xbd028a32	-0.031870075
156	0x3d9579f3	0.072986506
157	0xbd67c601	-0.056585316
158	0x3d174621	0.036932115
159	0xbcb23a5c	-0.021756344
160	0x3c845cef	0.016157595
161	0x3d529d7e	0.051419728
162	0xbd8561dd	-0.065128066
163	0xbd498b93	-0.049205374
164	0x3c4936d9	0.012281143
165	0x3dd2c328	0.10291129
166	0xbb95142a	-0.004549523
167	0x3d44a7ea	0.048011698
168	0xbd8ce481	-0.06879521
169	0xbbdd29d7	-0.0067493725
170	0x3c4784bf	0.012177645
171	0x3a81dcef	0.0009907762
172	0xbd295fce	-0.041351132
173	0xbabbff76	-0.0014343101
174	0x3c5a5e55	0.013328155
175	0x3cd0f4e6	0.025507402
176	0x3d4128e8	0.047158152
177	0x3d1b20c7	0.037873056
178	0xbcff92a4	-0.031197853
179	0xbc0b111c	-0.008487966
180	0x3d5c20be	0.053742163
181	0x3d3fecb5	0.0468566
182	0xbd63b8bb	-0.055596095
183	0x3d39d770	0.045371473
184	0xb9fd460b	-0.00048308106
185	0xbd116da2	-0.035504945
186	0x3d6656e9	0.056235228
187	0x3c7b6eab	0.0153462095
188	0x3d4f34c9	0.05058745
189	0x3ba00804	0.004883768
190	0x3b0b7c3d	0.0021283769
191	0xbce4731a	-0.027886916
192	0x3d027d9e	0.03185808
193	0xbd1b00aa	-0.03784243
194	0x3d56fc48	0.052486688
195	0x3d6565ca	0.056005277
196	0x3d24470f	0.04010683
197	0x3cdde7c0	0.027088046
198	0x3d11b390	0.035571635
199	0xbce07f31	-0.0274044
200	0xbd3f703e	-0.046737902
201	0x3d1d5325	0.03840937
202	0x3d47c8df	0.04877555
203	0x3d19a6a7	0.037512448
204	0x3c0f82d1	0.008759216
205	0xbae923e5	-0.0017787187
206	0x3d42dce1	0.047573928
207	0xbcd03ffa	-0.025421131
208	0x3b315b9e	0.0027062665
209	0xba8cc8cd	-0.0010740996
210	0x3c599b3b	0.013281639
211	0x3d76e095	0.060272772
212	0x3b514c91	0.0031936506
213	0xbd344178	-0.04400775
214	0xbc2759fa	-0.010214323
215	0xbd10da63	-0.03536452
216	0xbd44f2b7	-0.048083033
217	0xbd08a23d	-0.033357847
218	0x3c331d89	0.010932335
219	0xbd6f746a	-0.05846063
220	0xbd3212d5	-0.04347499
221	0xbb84986c	-0.0040464904
222	0x3bb73145	0.00559059
223	0xbc8166f8	-0.01579617
224	0xbd97eea6	-0.074185655
225	0xbd898ef5	-0.0671672
226	0xbd3d3578	-0.04619357
227	0xbb92ab2a	-0.0044759708
228	0xbb4bcffd	-0.0031099312
229	0xbd45ec50	-0.04832107
230	0xbd83038f	-0.06397163
231	0xbcba9de1	-0.02278036
232	0x3cb3b975	0.021939019
233	0x3d2db6bf	0.04241061
234	0x3b6bc80c	0.0035977392
235	0x3be288d3	0.0069132834
236	0xbd044081	-0.03228808
237	0xbcd3e428	-0.02586563
238	0x3d252e6f	0.040327486
239	0xbd3eaf2c	-0.046553776
240	0x3c76b6d4	0.015058238
241	0x3c8e6560	0.017382324
242	0xbd880070	-0.066407084
243	0x3cac1f03	0.021010881
244	0xbcd6862a	-0.026187021
245	0x3d15cc90	0.03657204
246	0x3da8ad01	0.08236123
247	0x3c625f57	0.013816676
248	0x3d0499ed	0.032373358
249	0xbb266384	-0.0025388906
250	0x3d6a0917	0.057137575
251	0x3b8c1879	0.0042753783
252	0xbd7133ea	-0.0588874
253	0xbc0e3997	-0.008680723
254	0xbc04b4b8	-0.008099727
255	0x3d61a4e9	0.05508891

conv2d_1/bias:0 f4 [32]
0	0x3c18f58b	0.009335886
1	0xbc2e7265	-0.010647391
2	0xbc421492	-0.011845725
3	0x3c07c702	0.008287193
4	0xbbc15539	-0.005900052
5	0xbc6f9c3a	-0.01462465
6	0xbbc9911f	-0.006151333
7	0xbbd15083	-0.0063877716
8	0x3bb3c5f1	0.005486243
9	0xbc7063d3	-0.014672237
10	0xbb2b8cbd	-0.0026176416
11	0xbc1aace7	-0.009440637
12	0xbc9def7e	-0.019279238
13	0xbc29d235	-0.010365059
14	0x3ba3a5f1	0.004994147
15	0xb943994a	-0.00018653754
16	0xbcc73442	-0.02431691
17	0x3c4db6d5	0.012555798
18	0xbc1ad112	-0.00944926
19	0xbc3c9d2f	-0.011512085
20	0x3b0f9c8c	0.0021913378
21	0xbba21dcf	-0.004947401
22	0xbc394e47	-0.011310167
23	0xbc18acb4	-0.009318519
24	0x3b9d05aa	0.004791935
25	0xbc145280	-0.009052873
26	0xbc2c27db	-0.010507549
27	0x3c5c1175	0.013431896
28	0x3bab9602	0.005236388
29	0xbc3083ec	-0.01077364
30	0xbb99f751	-0.004698672
31	0xbc479695	-0.012181898

conv2d/kernel:0 f4 [32, 3, 5, 5]
0	0x3d3a14d9	0.045430038
1	0x3d7373f3	0.05943675
2	0x3c9a2011	0.018814119
3	0xbd957549	-0.07297761
4	0xbcf0e817	-0.029407544
5	0x3dad94e1	0.08475662
6	0xbd7be43d	-0.06149696
7	0xbc9b8271	-0.018983098
8	0xbdab2884	-0.08357337
9	0x3d8c1a65	0.06840972
10	0x3c9bc5fb	0.019015303
11	0x3cd94445	0.026521811
12	0xbd73069a	-0.059332468
13	0x3da3c647	0.07996803
14	0x3d337e15	0.043821413
15	0xbd2b0e83	-0.041761886
16	0x3d62c9dc	0.05536829
17	0x3d717eb5	0.058958728
18	0xbb72984a	-0.003701704
19	0x3dbae5d7	0.0912587
20	0x3d7ed44d	0.062214185
21	0x3b951910	0.004550107
22	0xbd6b8499	-0.0574995
23	0x3d8f8a5a	0.0700881
24	0xbd1f1861	-0.03884161
25	0xbc8b6398	-0.017015263
26	0xbd935385	-0.071936645
27	0xbd3ab9cc	-0.045587346
28	0xbbc369af	-0.005963526
29	0x3c74b3dd	0.014935461
30	0xbd338d35	-0.043835837
31	0x3d113dfe	0.03545951
32	0xbac578e9	-0.0015065941
33	0xbdba360f	-0.09092342
34	0xbd912ab2	-0.070882216
35	0x3d252d29	0.04032627
36	0xbd92fddf	-0.07177328
37	0xbd4d4d67	-0.050122645
38	0xbd9410fe	-0.072298035
39	0x3c91d1ec	0.017800294
40	0xbbe3e202	-0.0069544325
41	0x3d192597	0.037389364
42	0xbc081567	-0.008305884
43	0xbd9b14c9	-0.07572324
44	0x3d90f48d	0.07077894
45	0x3d78977a	0.060691334
46	0xbd90682f	-0.070511214
47	0x3d103209	0.035203967
48	0xbb8521c3	-0.0040628626
49	0x3db0dadb	0.08635493
50	0xbcd0eb81	-0.025502922
51	0x3da05342	0.0782838
52	0x3cd020b0	0.025406212
53	0x3d4e4fee	0.050369196
54	0xbd5fd057	-0.054642048
55	0x3c6e71a2	0.014553459
56	0x3bae4661	0.0053184484
57	0xbd10a633	-0.03531475
58	0xbcde7b73	-0.027158475
59	0xbd8eb37b	-0.06967827
60	0xbd9adb7c	-0.075613946
61	0xbd86a583	-0.065745376
62	0xbd2a38ec	-0.04155819
63	0xbd405dcc	-0.04696445
64	0x3db48352	0.0881411
65	0x3c9a966e	0.018870559
66	0xbae65af2	-0.0017574711
67	0x3d6b1af6	0.05739876
68	0xbd8c4fa9	-0.068511315
69	0x3d483426	0.048877858
70	0x3db090e4	0.08621386
71	0xbd9076e3	-0.07053926
72	0xbd9ac62a	-0.07557328
73	0x3d9acadf	0.07558226
74	0x3dc141d5	0.094363846
75	0x3d88be9a	0.06676979
76	0x3d916c04	0.071006805
77	0x3db2cc2c	0.08730349
78	0x3d5a9bbd	0.05337118
79	0x3d6d7b03	0.05797864
80	0xbcfe7b06	-0.031064522
81	0x3c904228	0.01760967
82	0xbd9792b8	-0.07401031
83	0xbd2a4f9b	-0.041579824
84	0x3d9210f7	0.07132142
85	0x3d7c40d9	0.06158528
86	0xbd6c9f42	-0.057769068
87	0x3d0761a7	0.033052113
88	0xbbc271fa	-0.005933997
89	0xbc455688	-0.012044556
90	0x3d8bca9e	0.068257555
91	0x3caeb9ad	0.021328771
92	0xbda3630c	-0.07977876
93	0xbd822444	-0.06354573
94	0x3d1f4fde	0.038894527
95	0x3d2f2e31	0.04276866
96	0x3d82f1ac	0.063937515
97	0x3d6bff20	0.057616353
98	0xbcf4cdfb	-0.029883375
99	0xbcb7c112	-0.02243093
100	0x3db75094	0.08950916
101	0x3d3b4213	0.04571731
102	0x3d4607a0	0.048347116
103	0xbb903a9f	-0.0044015194
104	0xbd44487b	-0.047920685
105	0x3d7f8c45	0.06238963
106	0x3b940e65	0.0045183175
107	0xbd535c1e	-0.05160152
108	0x3d563c98	0.05230388
109	0x3d8e18ae	0.06938301
110	0x3d1d50ab	0.03840701
111	0xbbb491a8	-0.0055105276
112	0x3b8a158e	0.0042139953
113	0xbd8ffe2f	-0.070309035
114	0x3d43dc84	0.047817722
115	0xbd881658	-0.06644887
116	0x3d085700	0.033286095
117	0xbc2ab16a	-0.010418275
118	0xbc9248e0	-0.017857015
119	0xbd1009fc	-0.03516577
120	0xbd3810f6	-0.04493805
121	0x3d148191	0.036256377
122	0xbdae13e3	-0.08499887
123	0x3c29bcea	0.010359982
124	0xbd267404	-0.040637985
125	0x3c9c7248	0.019097462
126	0x3b33b4b9	0.0027420952
127	0x3dceecd2	0.10103764
128	0xbd814c11	-0.06313337
129	0xbd9abe27	-0.075558
130	0x3d8be00c	0.06829843
131	0xbd2dad79	-0.042401765
132	0x3d5544ae	0.05206745
133	0xbd9f66dd	-0.077832915
134	0xbda50ace	-0.080587015
135	0xbc6ae75c	-0.014337387
136	0xbdcc798a	-0.09984119
137	0xbd9f493d	-0.07777641
138	0x3d85f154	0.0654017
139	0x3ca88a66	0.020573806
140	0xbdc52aac	-0.0962728
141	0x3d23f182	0.04002524
142	0x3b1cd552	0.002393086
143	0xbb481482	-0.0030529802
144	0xbc62a67f	-0.013833641
145	0xbd5902a3	-0.05298103
146	0xbdd0522d	-0.10171924
147	0xbd3a2fa9	-0.04545561
148	0x3c6cd9e5	0.014456247
149	0x3d00de64	0.03146209
150	0x3d5edfa4	0.0544125
151	0x3d004047	0.0313113
152	0xbd7a50a7	-0.061112072
153	0x3d4161ab	0.047212284
154	0xbd582901	-0.05277348
155	0x3c71e4a4	0.014763985
156	0x3d4ab310	0.049487174
157	0xbd05b721	-0.03264535
158	0x3d729d7a	0.059232213
159	0x3cebae43	0.028769618
160	0xbd0cbd83	-0.03436042
161	0xbc4315ef	-0.011907085
162	0x3c8eed97	0.017447276
163	0x3d956933	0.07295456
164	0x3da6b0ae	0.08139168
165	0x3c36164e	0.011113716
166	0x3d93c749	0.07215745
167	0x3d5b367c	0.053518757
168	0xbd906f8f	-0.07052528
169	0x3d5313e3	0.051532637
170	0xbd77c116	-0.060486875
171	0x3d9af888	0.07566935
172	0xbc9d5e32	-0.019209955
173	0x3ce571a8	0.028008297
174	0x3d17ff87	0.037108924
175	0xbda8fb54	-0.08251062
176	0x3d57d021	0.05268872
177	0xbd34fa96	-0.04418429
178	0x3b9cfcd7	0.004790883
179	0x3d165223	0.036699425
180	0xbd997e7e	-0.074948296
181	0xbd8841f8	-0.066532075
182	0xbda0201c	-0.078186244
183	0x3d440cad	0.04786365
184	0x3d9b747e	0.075905785
185	0xbdbcf9bc	-0.092273206
186	0x3d79c760	0.060981154
187	0x3d805cbb	0.06267687
188	0x3d477fee	0.048705988
189	0xbd5fc34a	-0.0546296
190	0xbccb019c	-0.02478104
191	0x3d7c2a67	0.061563876
192	0x3c57070e	0.013124241
193	0xbce5db5c	-0.0280587
194	0xbd8cb06b	-0.068695866
195	0xbdc18c30	-0.09450567
196	0x3cf36c96	0.029714864
197	0xbd39c210	-0.045351088
198	0xbd84be3e	-0.06481598
199	0x3dae7b09	0.08519561
200	0xba80c92e	-0.0009825581
201	0xbd1ce925	-0.03830828
202	0xbd9c2b2b	-0.07625421
203	0x3d586842	0.052833803
204	0x3c85f176	0.01635049
205	0xbd9083d1	-0.07056392
206	0xbd74768d	-0.05968337
207	0x3ab06995	0.00134592
208	0xbc10b2a8	-0.0088316575
209	0x3d6fec1b	0.058574777
210	0xbdeb220f	-0.114811055
211	0xbc244a96	-0.010027548
212	0x3d87b598	0.06626433
213	0x3c87b882	0.016567472
214	0x3bde979c	0.0067929756
215	0xbde8de39	-0.113705106
216	0xbd60a312	-0.054843016
217	0xbc65d717	-0.014028332
218	0x3da1ac65	0.0789421
219	0x3d362eca	0.044478215
220	0x3b996996	0.0046817763
221	0xbcf9843c	-0.030458562
222	0x3d91b629	0.071148224
223	0xbd39b3c4	-0.045337453
224	0x3cb12979	0.021626221
225	0xbd8c6c03	-0.06856539
226	0x3d7d5fb7	0.06185886
227	0xba29b5e4	-0.0006473942
228	0x3cbbf2b4	0.022942878
229	0xbba027c5	-0.0048875534
230	0xbd8eb439	-0.069679685
231	0x3cbf27c0	0.023334384
232	0x3d44bb9c	0.04803048
233	0xbd979174	-0.0740079
234	0x3d20739f	0.039172765
235	0xbd55fcb9	-0.05224297
236	0xbc28bddf	-0.010299175
237	0x3c0e7188	0.00869406
238	0x3b0a9040	0.0021143109
239	0x3d48023b	0.048830252
240	0x3dade9ff	0.08491897
241	0x3cefa23c	0.029252164
242	0xbd29925d	-0.04139935
243	0xbd455649	-0.04817799
244	0xbd150cea	-0.03638927
245	0x3d4458c2	0.04793621
246	0xbd4c3cc0	-0.049862623
247	0x3d06d58c	0.032918498
248	0xbd2ab1bb	-0.041673403
249	0xbd6dfe0f	-0.058103617
250	0xbd80c035	-0.062866606
251	0xbda84463	-0.08216169
252	0x3d68256a	0.056676306
253	0x3bb58e9e	0.005540683
254	0x3c29aa4d	0.010355544
255	0x3d8870ff	0.06662177

conv2d/bias:0 f4 [32]
0	0x3cbeb439	0.023279296
1	0x3c34654f	0.011010482
2	0x3bc7166b	0.0060756705
3	0x3c3e9eb2	0.011634516
4	0xbc9ead63	-0.019369787
5	0x3c28028f	0.010254516
6	0x3c2d4e1c	0.010577705
7	0xbc1718b0	-0.009222195
8	0x3c63f203	0.013912681
9	0x3c0b8ed3	0.008517939
10	0x3c77844c	0.015107226
11	0x3a2f6abd	0.00066916255
12	0xbbd4c238	-0.0064928792
13	0x3c26e83c	0.010187205
14	0x3bf4eca2	0.007474498
15	0xbd032e9c	-0.032026872
16	0x3c908eed	0.017646277
17	0x3cf8b091	0.03035763
18	0x3b26f381	0.002547473
19	0x3c357f72	0.011077749
20	0xbc8b0154	-0.016968407
21	0x3ab89cee	0.0014084855
22	0x3c71b07a	0.014751548
23	0x3c5517b4	0.01300614
24	0xbc216d7d	-0.009852764
25	0x3c829ef5	0.015944937
26	0x00000000	0.0
27	0x3c98e925	0.01866586
28	0x3bd4cf54	0.006494442
29	0x3a79c877	0.0009528468
30	0x3c772a17	0.015085719
31	0xbb82a414	-0.003986845
